{"format": "layers-model", "generatedBy": "keras v2.2.4-tf", "convertedBy": "TensorFlow.js Converter v1.0.1", "modelTopology": {"keras_version": "2.2.4-tf", "backend": "tensorflow", "model_config": {"class_name": "Sequential", "config": {"name": "sequential", "layers": [{"class_name": "Dense", "config": {"name": "dense", "trainable": true, "batch_input_shape": [null, 100], "dtype": "float32", "units": 200, "activation": "relu", "use_bias": true, "kernel_initializer": {"class_name": "GlorotNormal", "config": {"seed": 961}}, "bias_initializer": {"class_name": "Zeros", "config": {}}, "kernel_regularizer": null, "bias_regularizer": null, "activity_regularizer": null, "kernel_constraint": null, "bias_constraint": null}}, {"class_name": "Dense", "config": {"name": "dense_1", "trainable": true, "dtype": "float32", "units": 500, "activation": "relu", "use_bias": true, "kernel_initializer": {"class_name": "GlorotNormal", "config": {"seed": 961}}, "bias_initializer": {"class_name": "Zeros", "config": {}}, "kernel_regularizer": null, "bias_regularizer": null, "activity_regularizer": null, "kernel_constraint": null, "bias_constraint": null}}, {"class_name": "Dense", "config": {"name": "dense_2", "trainable": true, "dtype": "float32", "units": 500, "activation": "relu", "use_bias": true, "kernel_initializer": {"class_name": "GlorotNormal", "config": {"seed": 961}}, "bias_initializer": {"class_name": "Zeros", "config": {}}, "kernel_regularizer": null, "bias_regularizer": null, "activity_regularizer": null, "kernel_constraint": null, "bias_constraint": null}}, {"class_name": "Dense", "config": {"name": "dense_3", "trainable": true, "dtype": "float32", "units": 450, "activation": "relu", "use_bias": true, "kernel_initializer": {"class_name": "GlorotNormal", "config": {"seed": 961}}, "bias_initializer": {"class_name": "Zeros", "config": {}}, "kernel_regularizer": null, "bias_regularizer": null, "activity_regularizer": null, "kernel_constraint": null, "bias_constraint": null}}, {"class_name": "Dense", "config": {"name": "dense_4", "trainable": true, "dtype": "float32", "units": 400, "activation": "relu", "use_bias": true, "kernel_initializer": {"class_name": "GlorotNormal", "config": {"seed": 961}}, "bias_initializer": {"class_name": "Zeros", "config": {}}, "kernel_regularizer": null, "bias_regularizer": null, "activity_regularizer": null, "kernel_constraint": null, "bias_constraint": null}}, {"class_name": "Dense", "config": {"name": "dense_5", "trainable": true, "dtype": "float32", "units": 400, "activation": "relu", "use_bias": true, "kernel_initializer": {"class_name": "GlorotNormal", "config": {"seed": 961}}, "bias_initializer": {"class_name": "Zeros", "config": {}}, "kernel_regularizer": null, "bias_regularizer": null, "activity_regularizer": null, "kernel_constraint": null, "bias_constraint": null}}, {"class_name": "Dense", "config": {"name": "dense_6", "trainable": true, "dtype": "float32", "units": 350, "activation": "relu", "use_bias": true, "kernel_initializer": {"class_name": "GlorotNormal", "config": {"seed": 961}}, "bias_initializer": {"class_name": "Zeros", "config": {}}, "kernel_regularizer": null, "bias_regularizer": null, "activity_regularizer": null, "kernel_constraint": null, "bias_constraint": null}}, {"class_name": "Dense", "config": {"name": "dense_7", "trainable": true, "dtype": "float32", "units": 300, "activation": "relu", "use_bias": true, "kernel_initializer": {"class_name": "GlorotNormal", "config": {"seed": 961}}, "bias_initializer": {"class_name": "Zeros", "config": {}}, "kernel_regularizer": null, "bias_regularizer": null, "activity_regularizer": null, "kernel_constraint": null, "bias_constraint": null}}, {"class_name": "Dense", "config": {"name": "dense_8", "trainable": true, "dtype": "float32", "units": 300, "activation": "relu", "use_bias": true, "kernel_initializer": {"class_name": "GlorotNormal", "config": {"seed": 961}}, "bias_initializer": {"class_name": "Zeros", "config": {}}, "kernel_regularizer": null, "bias_regularizer": null, "activity_regularizer": null, "kernel_constraint": null, "bias_constraint": null}}, {"class_name": "Dense", "config": {"name": "dense_9", "trainable": true, "dtype": "float32", "units": 250, "activation": "relu", "use_bias": true, "kernel_initializer": {"class_name": "GlorotNormal", "config": {"seed": 961}}, "bias_initializer": {"class_name": "Zeros", "config": {}}, "kernel_regularizer": null, "bias_regularizer": null, "activity_regularizer": null, "kernel_constraint": null, "bias_constraint": null}}, {"class_name": "Dense", "config": {"name": "dense_10", "trainable": true, "dtype": "float32", "units": 200, "activation": "relu", "use_bias": true, "kernel_initializer": {"class_name": "GlorotNormal", "config": {"seed": 961}}, "bias_initializer": {"class_name": "Zeros", "config": {}}, "kernel_regularizer": null, "bias_regularizer": null, "activity_regularizer": null, "kernel_constraint": null, "bias_constraint": null}}, {"class_name": "Dense", "config": {"name": "dense_11", "trainable": true, "dtype": "float32", "units": 200, "activation": "relu", "use_bias": true, "kernel_initializer": {"class_name": "GlorotNormal", "config": {"seed": 961}}, "bias_initializer": {"class_name": "Zeros", "config": {}}, "kernel_regularizer": null, "bias_regularizer": null, "activity_regularizer": null, "kernel_constraint": null, "bias_constraint": null}}, {"class_name": "Dense", "config": {"name": "dense_12", "trainable": true, "dtype": "float32", "units": 150, "activation": "relu", "use_bias": true, "kernel_initializer": {"class_name": "GlorotNormal", "config": {"seed": 961}}, "bias_initializer": {"class_name": "Zeros", "config": {}}, "kernel_regularizer": null, "bias_regularizer": null, "activity_regularizer": null, "kernel_constraint": null, "bias_constraint": null}}, {"class_name": "Dense", "config": {"name": "dense_13", "trainable": true, "dtype": "float32", "units": 100, "activation": "relu", "use_bias": true, "kernel_initializer": {"class_name": "GlorotNormal", "config": {"seed": 961}}, "bias_initializer": {"class_name": "Zeros", "config": {}}, "kernel_regularizer": null, "bias_regularizer": null, "activity_regularizer": null, "kernel_constraint": null, "bias_constraint": null}}, {"class_name": "Dense", "config": {"name": "dense_14", "trainable": true, "dtype": "float32", "units": 100, "activation": "relu", "use_bias": true, "kernel_initializer": {"class_name": "GlorotNormal", "config": {"seed": 961}}, "bias_initializer": {"class_name": "Zeros", "config": {}}, "kernel_regularizer": null, "bias_regularizer": null, "activity_regularizer": null, "kernel_constraint": null, "bias_constraint": null}}, {"class_name": "Dense", "config": {"name": "dense_15", "trainable": true, "dtype": "float32", "units": 50, "activation": "relu", "use_bias": true, "kernel_initializer": {"class_name": "GlorotNormal", "config": {"seed": 961}}, "bias_initializer": {"class_name": "Zeros", "config": {}}, "kernel_regularizer": null, "bias_regularizer": null, "activity_regularizer": null, "kernel_constraint": null, "bias_constraint": null}}, {"class_name": "Dense", "config": {"name": "dense_16", "trainable": true, "dtype": "float32", "units": 25, "activation": "relu", "use_bias": true, "kernel_initializer": {"class_name": "GlorotNormal", "config": {"seed": 961}}, "bias_initializer": {"class_name": "Zeros", "config": {}}, "kernel_regularizer": null, "bias_regularizer": null, "activity_regularizer": null, "kernel_constraint": null, "bias_constraint": null}}, {"class_name": "Dense", "config": {"name": "dense_17", "trainable": true, "dtype": "float32", "units": 15, "activation": "softmax", "use_bias": true, "kernel_initializer": {"class_name": "GlorotNormal", "config": {"seed": 961}}, "bias_initializer": {"class_name": "Zeros", "config": {}}, "kernel_regularizer": null, "bias_regularizer": null, "activity_regularizer": null, "kernel_constraint": null, "bias_constraint": null}}]}}, "training_config": {"optimizer_config": {"class_name": "Adagrad", "config": {"name": "Adagrad", "learning_rate": 0.01, "decay": 0.0, "initial_accumulator_value": 0.1, "epsilon": 1e-07}}, "loss": "categorical_crossentropy", "metrics": ["accuracy"], "weighted_metrics": null, "sample_weight_mode": null, "loss_weights": null}}, "weightsManifest": [{"paths": ["group1-shard1of2.bin", "group1-shard2of2.bin"], "weights": [{"name": "dense/kernel", "shape": [100, 200], "dtype": "float32"}, {"name": "dense/bias", "shape": [200], "dtype": "float32"}, {"name": "dense_1/kernel", "shape": [200, 500], "dtype": "float32"}, {"name": "dense_1/bias", "shape": [500], "dtype": "float32"}, {"name": "dense_10/kernel", "shape": [250, 200], "dtype": "float32"}, {"name": "dense_10/bias", "shape": [200], "dtype": "float32"}, {"name": "dense_11/kernel", "shape": [200, 200], "dtype": "float32"}, {"name": "dense_11/bias", "shape": [200], "dtype": "float32"}, {"name": "dense_12/kernel", "shape": [200, 150], "dtype": "float32"}, {"name": "dense_12/bias", "shape": [150], "dtype": "float32"}, {"name": "dense_13/kernel", "shape": [150, 100], "dtype": "float32"}, {"name": "dense_13/bias", "shape": [100], "dtype": "float32"}, {"name": "dense_14/kernel", "shape": [100, 100], "dtype": "float32"}, {"name": "dense_14/bias", "shape": [100], "dtype": "float32"}, {"name": "dense_15/kernel", "shape": [100, 50], "dtype": "float32"}, {"name": "dense_15/bias", "shape": [50], "dtype": "float32"}, {"name": "dense_16/kernel", "shape": [50, 25], "dtype": "float32"}, {"name": "dense_16/bias", "shape": [25], "dtype": "float32"}, {"name": "dense_17/kernel", "shape": [25, 15], "dtype": "float32"}, {"name": "dense_17/bias", "shape": [15], "dtype": "float32"}, {"name": "dense_2/kernel", "shape": [500, 500], "dtype": "float32"}, {"name": "dense_2/bias", "shape": [500], "dtype": "float32"}, {"name": "dense_3/kernel", "shape": [500, 450], "dtype": "float32"}, {"name": "dense_3/bias", "shape": [450], "dtype": "float32"}, {"name": "dense_4/kernel", "shape": [450, 400], "dtype": "float32"}, {"name": "dense_4/bias", "shape": [400], "dtype": "float32"}, {"name": "dense_5/kernel", "shape": [400, 400], "dtype": "float32"}, {"name": "dense_5/bias", "shape": [400], "dtype": "float32"}, {"name": "dense_6/kernel", "shape": [400, 350], "dtype": "float32"}, {"name": "dense_6/bias", "shape": [350], "dtype": "float32"}, {"name": "dense_7/kernel", "shape": [350, 300], "dtype": "float32"}, {"name": "dense_7/bias", "shape": [300], "dtype": "float32"}, {"name": "dense_8/kernel", "shape": [300, 300], "dtype": "float32"}, {"name": "dense_8/bias", "shape": [300], "dtype": "float32"}, {"name": "dense_9/kernel", "shape": [300, 250], "dtype": "float32"}, {"name": "dense_9/bias", "shape": [250], "dtype": "float32"}]}]}